HW01-Regression/weight.npy (npy, 1432 bytes, 1 tensors)

array f8 [163, 1]
21.37402689313543 3.5888890925023555 4.563863234804176 2.1630702344290587 -6.585452226042623 -33.88855796364398 32.22355183560411 3.4934035376668033
-4.603086712512548 -1.0237475402929803 -0.3967915007998204 -0.10690879964238247 0.2224881838036574 0.0899634117105994 0.13124310474353876 0.021589498908599288
-0.1528672632353595 0.04540877760197878 0.5209992347395718 0.16082421322780538 -0.03177094510517048 0.012852902531185465 -0.17683943741966326 0.17124137075919008
-0.13119003219179004 -0.03516144512854852 0.10082619213699202 0.34501825687749743 0.040013031521451255 0.025433138189021574 -0.5044252192391204 0.3714830180121957
0.8463576714149993 -0.8119204283773885 -0.08002175749060962 0.15273771113900436 0.2649151295932005 -0.051986041606139254 -0.25198831524515786 0.38524651671585347
0.16543145053553582 -0.07836333135678109 -0.28945723116700983 0.17761502290859954 0.32250694849757056 -0.45995525628120376 -0.034863535774921406 -0.581764363163032
-0.06433945281911277 -0.6328769491442966 0.06366245073949325 0.08315925061094769 -0.44515796080466097 -0.23452636599041912 0.9866085935437426 0.26523065173030597
0.0351938093029272 0.30746433437435006 -0.10431123877125105 -0.06491669008688021 0.21122475662971857 -0.24315981452545612 -0.13128560352315197 1.0904581049936495
-0.039791370964815366 0.9195636776090791 -0.9448241496297616 -0.5041377347809614 0.6812729394853783 -1.3449482846931677 -0.2680095422105151 0.04362043424481543
1.8961951310888108 -0.34187387313841 0.18916246123536407 0.017325126789599958 0.31443192988395224 -0.34082846742281203 0.4923856510915472 0.09296342135773686
-0.4509835887739536 1.474565844134187 -0.030341723644349478 0.077122932821301 0.6383144941935177 -0.7932870865919301 0.8828775058257573 3.1896560979993858
-5.756717060862833 1.607489446061033 13.614243957707608 0.1500291108151195 -0.047838960305755664 -0.06294637545013382 -0.028538303243428438 -0.301562820547388
0.412058012500504 -0.06775341543761683 -0.1009854792548927 -0.16897297303186318 1.6409323300958627 1.8967037114050267 0.3947138159102361 -4.712314493256487
-7.427607743379599 6.197819357958706 3.539862443336112 -0.9562458611155059 -1.04372791876648 -0.49286371333248985 0.6316087902931782 -0.48517595630058535
0.2584002162275417 0.09438467948938002 -0.12932318383849958 -0.3812352865347013 0.3868194792911334 0.4042116271145311 0.37556891439661316 0.18351226133169288
-0.0801417708083538 -0.3101885970926821 -0.3961246116058263 0.36622785313871403 0.179488593184763 -0.31447705109700175 -0.23761144257702255 0.03970761038981746
0.13877591197815572 -0.038401506851394145 -0.05475571187078668 0.4199752073910961 0.4461206868147852 -0.4310748262641777 -0.08744507678041208 -0.05695342642407382
-0.07239801574660079 -0.013988012817767525 0.1404896584771665 -0.2449523338011322 0.1836467701069104 -0.1641355117784765 -0.0741216451508028 -0.09714142127264254
0.019882904140360442 -0.4469659193499472 -0.2634409586201922 0.1529240430614733 0.06525328467576186 0.7068182662473339 0.09737570513034755 -0.33568778747188993
-0.2265591649732611 -0.30011708584002095 0.1241852309967923 0.41887234352115327 -0.25189194591152325 -0.1290957310210013 -0.5575124713388738 0.08762395819820702
0.3025949016456054 -0.42346315954299935 0.48992205111626735
00000000: 56d7 f939 c05f 3540 5f26 0a7c 0bb6 0c40
00000010: 529a 235d 6541 1240 4497 5ec4 f74d 0140
00000020: d4e4 d0c9 8057 1ac0 c339 7144 bcf1 40c0
00000030: b270 b758 9d1c 4040 b613 d08d 7df2 0b40
00000040: fe92 2b90 8f69 12c0 60b3 ce19 4561 f0bf
00000050: ec05 d12d 0865 d9bf cb5f 1e06 605e bbbf
00000060: 4f71 9728 7e7a cc3f 2034 2297 d707 b73f
00000070: e178 59f5 92cc c03f df72 ffbe 8e1b 963f
00000080: 45c9 1c8c 2791 c3bf abf0 80bd d13f a73f
00000090: d251 4e96 06ac e03f 0cf3 1b48 e395 c43f
000000a0: c822 6104 4844 a0bf 15ae 3d60 9f52 8a3f
000000b0: 9d24 2eb8 aca2 c6bf eb03 91bb 3ceb c53f
000000c0: 2897 e9c0 d5ca c0bf 687e d051 ae00 a2bf
000000d0: f5ff cecd becf b93f 2ef4 7374 c714 d63f
000000e0: 79ce 988b 967c a43f f9a6 0603 250b 9a3f
000000f0: df1b 7d5b 4024 e0bf bf6e 58b5 60c6 d73f
00000100: bf46 eeae 5c15 eb3f e9b9 da8c 40fb e9bf
00000110: 1bff 634f 4e7c b4bf 149d 1ac9 e88c c33f
00000120: a260 7496 5ef4 d03f 7bfe 1719 ea9d aabf
00000130: 10ef 3c99 9320 d0bf 0d52 8c01 e1a7 d83f
00000140: fed5 e396 db2c c53f 600b 6289 9e0f b4bf
00000150: 44fe 5c9f 7786 d2bf 58da 55cd 16bc c63f
00000160: 9ae8 212f f4a3 d43f e977 d62b e86f ddbf
00000170: 40d2 f323 a2d9 a1bf 826e 384c d09d e2bf
00000180: 1e5c b3e5 8c78 b0bf bdf1 de28 8740 e4bf
00000190: 26ca e8af 2e4c b03f 1be0 bbb5 ec49 b53f
000001a0: c471 cdd0 777d dcbf 0142 fdbf f504 cebf
000001b0: 4122 672f 4c92 ef3f ff04 c5fb 89f9 d03f
000001c0: 6799 f447 ec04 a23f 62c0 34e3 7ead d33f
000001d0: 91b5 202f 24b4 babf 7b41 e354 619e b0bf
000001e0: 0244 eaae 6909 cb3f 194c 8b5d dc1f cfbf
000001f0: cfa5 c876 f7cd c0bf 99b1 a932 8472 f13f
00000200: f5ec e9d9 885f a4bf 9774 3dce 106d ed3f
00000210: d02f e4da ff3b eebf 3f0a 7275 e521 e0bf
00000220: e0a9 57e8 fccc e53f 6218 197e e884 f5bf
00000230: 94d8 b37e 1127 d1bf 40a0 09e5 6a55 a63f
00000240: 25c6 adb4 d056 fe3f ee1f 1ff4 42e1 d5bf
00000250: 3c81 51bc 7936 c83f 3e6f d793 adbd 913f
00000260: 05dd ea19 a71f d43f 261d 4834 22d0 d5bf
00000270: 9c4d 1d1b 3f83 df3f e2ab 7466 73cc b73f
00000280: 2a47 3445 eadc dcbf f1ad c55a d297 f73f
00000290: b8e9 069b e611 9fbf 3035 3d1a 54be b33f
000002a0: 52f7 a384 126d e43f f60b a899 9b62 e9bf
000002b0: 63a9 bc53 8840 ec3f 9827 936a 6a84 0940
000002c0: a8ec 52d6 e006 17c0 e9f4 77da 46b8 f93f
000002d0: 543d 1c2f 7e3a 2b40 180f 3366 2734 c33f
000002e0: 25c9 f923 597e a8bf a0c6 f5ef 401d b0bf
000002f0: a296 741c 2539 9dbf f131 fc24 ce4c d3bf
00000300: a4a4 ef91 285f da3f 9932 7faf 4958 b1bf
00000310: 5b49 c532 2fda b9bf ff34 8a08 e8a0 c5bf
00000320: 775f 4b42 4241 fa3f 8bfb aafd e558 fe3f
00000330: f748 a7bc fd42 d93f 8203 74f8 68d9 12c0
00000340: b353 e5cd deb5 1dc0 1fcb 6328 91ca 1840
00000350: f0bc 9366 a351 0c40 87a5 8deb 9099 eebf
00000360: 0763 d00b 1cb3 f0bf 817b 893e 148b dfbf
00000370: 3e9c 45a3 2336 e43f 6175 4774 1f0d dfbf
00000380: f280 7e0f a189 d03f f97b a627 9829 b83f
00000390: c7b8 997e a98d c0bf d4da efaf 2866 d8bf
000003a0: f7b6 407d a6c1 d83f c1ab c771 9ade d93f
000003b0: 4392 2e33 5209 d83f 09d5 6a6c 547d c73f
000003c0: 1e58 aacc 2b84 b4bf 70bb 0646 21da d3bf
000003d0: e736 ff0a 1b5a d9bf 455d 07f3 4670 d73f
000003e0: cae6 dd72 7bf9 c63f 1677 735a 6420 d4bf
000003f0: 6608 833f 0d6a cebf 589b 0d50 8e54 a43f
00000400: b799 b5b9 68c3 c13f 8774 16c0 5ca9 a3bf
00000410: 242a 82cf f008 acbf 6d09 38b1 dfe0 da3f
00000420: 6111 fcc7 3d8d dc3f e0be 3bde ba96 dbbf
00000430: 04d4 f7f0 cc62 b6bf 7ae8 c5df ff28 adbf
00000440: 2a4c ed25 ad88 b2bf c6eb b44c bfa5 8cbf
00000450: 3af6 4aac 90fb c13f 439b 601b 995a cfbf
00000460: e706 d0c3 bc81 c73f 23b3 9977 6402 c5bf
00000470: ba31 d9d9 a2f9 b2bf 15f5 739b 42de b8bf
00000480: a520 211c 2f5c 943f d636 82f1 169b dcbf
00000490: dfd6 6c77 37dc d0bf c74d dcd9 0393 c33f
000004a0: e093 a373 70b4 b03f 52ed 3757 419e e63f
000004b0: 48b4 f53c 9ded b83f 77ef 36a1 e87b d5bf
000004c0: 2ba9 1506 e4ff ccbf 76d6 294b 1e35 d3bf
000004d0: 8c05 c771 9aca bf3f a1d2 27f2 cdce da3f
000004e0: f535 7465 ff1e d0bf baea 647b 3586 c0bf
000004f0: 3967 f064 24d7 e1bf d1af ce12 866e b63f
00000500: 0145 a001 b75d d33f a312 5339 051a dbbf
00000510: 0b8d c804 e25a df3f
